…
       drive       1.00      1.00      1.00        14
        lift       1.00      1.00      1.00        15
       smash       1.00      1.00      1.00        16

    accuracy                           1.00        59
   macro avg       1.00      1.00      1.00        59
weighted avg       1.00      1.00      1.00        59

===============================================================================================
Layer (type:depth-idx)                        Output Shape              Param #
===============================================================================================
TransformerShotClassifier                     [1, 4]                    --
├─Linear: 1-1                                 [1, 20, 64]               640
├─PositionalEncodingLearned: 1-2              [1, 20, 64]               1,280
├─TransformerEncoder: 1-3                     [1, 20, 64]               --
│    └─ModuleList: 2-1                        --                        --
│    │    └─TransformerEncoderLayer: 3-1      [1, 20, 64]               33,472
│    │    └─TransformerEncoderLayer: 3-2      [1, 20, 64]               33,472
├─Sequential: 1-4                             [1, 4]                    --
│    └─Linear: 2-2                            [1, 64]                   4,160
│    └─ReLU: 2-3                              [1, 64]                   --
│    └─Dropout: 2-4                           [1, 64]                   --
│    └─Linear: 2-5                            [1, 4]                    260
===============================================================================================
Total params: 73,284
Trainable params: 73,284
Non-trainable params: 0
Total mult-adds (M): 0.04
===============================================================================================
Input size (MB): 0.00
Forward/backward pass size (MB): 0.12
Params size (MB): 0.16
Estimated Total Size (MB): 0.28
…
